…
RGB_BNInception_TRNmultiscale_segment8

    Initializing TSN with base model: BNInception.
    TSN Configurations:
        input_modality:     RGB
        num_segments:       8
        new_length:         1
        consensus_module:   TRNmultiscale
        dropout_ratio:      0.3
        img_feature_dim:    256
            
Multi-Scale Temporal Relation Network Module in use ['8-frame relation', '7-frame relation', '6-frame relation', '5-frame relation', '4-frame relation', '3-frame relation', '2-frame relation']
DataParallel(
  (module): TSN(
    (base_model): BNInception(
      (conv1_7x7_s2): Conv2d(3, 64, kernel_size=(7, 7), stride=(2, 2), padding=(3, 3))
      (conv1_7x7_s2_bn): BatchNorm2d(64, eps=1e-05, momentum=0.1, affine=True, track_running_stats=True)
      (conv1_relu_7x7): ReLU(inplace=True)
      (pool1_3x3_s2): MaxPool2d(kernel_size=(3, 3), stride=(2, 2), padding=0, dilation=(1, 1), ceil_mode=True)
      (conv2_3x3_reduce): Conv2d(64, 64, kernel_size=(1, 1), stride=(1, 1))
      (conv2_3x3_reduce_bn): BatchNorm2d(64, eps=1e-05, momentum=0.1, affine=True, track_running_stats=True)
      (conv2_relu_3x3_reduce): ReLU(inplace=True)
      (conv2_3x3): Conv2d(64, 192, kernel_size=(3, 3), stride=(1, 1), padding=(1, 1))
      (conv2_3x3_bn): BatchNorm2d(192, eps=1e-05, momentum=0.1, affine=True, track_running_stats=True)
      (conv2_relu_3x3): ReLU(inplace=True)
      (pool2_3x3_s2): MaxPool2d(kernel_size=(3, 3), stride=(2, 2), padding=0, dilation=(1, 1), ceil_mode=True)
      (inception_3a_1x1): Conv2d(192, 64, kernel_size=(1, 1), stride=(1, 1))
      (inception_3a_1x1_bn): BatchNorm2d(64, eps=1e-05, momentum=0.1, affine=True, track_running_stats=True)
      (inception_3a_relu_1x1): ReLU(inplace=True)
      (inception_3a_3x3_reduce): Conv2d(192, 64, kernel_size=(1, 1), stride=(1, 1))
      (inception_3a_3x3_reduce_bn): BatchNorm2d(64, eps=1e-05, momentum=0.1, affine=True, track_running_stats=True)
      (inception_3a_relu_3x3_reduce): ReLU(inplace=True)
      (inception_3a_3x3): Conv2d(64, 64, kernel_size=(3, 3), stride=(1, 1), padding=(1, 1))
      (inception_3a_3x3_bn): BatchNorm2d(64, eps=1e-05, momentum=0.1, affine=True, track_running_stats=True)
      (inception_3a_relu_3x3): ReLU(inplace=True)
      (inception_3a_double_3x3_reduce): Conv2d(192, 64, kernel_size=(1, 1), stride=(1, 1))
      (inception_3a_double_3x3_reduce_bn): BatchNorm2d(64, eps=1e-05, momentum=0.1, affine=True, track_running_stats=True)
      (inception_3a_relu_double_3x3_reduce): ReLU(inplace=True)
      (inception_3a_double_3x3_1): Conv2d(64, 96, kernel_size=(3, 3), stride=(1, 1), padding=(1, 1))
      (inception_3a_double_3x3_1_bn): BatchNorm2d(96, eps=1e-05, momentum=0.1, affine=True, track_running_stats=True)
      (inception_3a_relu_double_3x3_1): ReLU(inplace=True)
      (inception_3a_double_3x3_2): Conv2d(96, 96, kernel_size=(3, 3), stride=(1, 1), padding=(1, 1))
      (inception_3a_double_3x3_2_bn): BatchNorm2d(96, eps=1e-05, momentum=0.1, affine=True, track_running_stats=True)
      (inception_3a_relu_double_3x3_2): ReLU(inplace=True)
      (inception_3a_pool): AvgPool2d(kernel_size=3, stride=1, padding=1)
      (inception_3a_pool_proj): Conv2d(192, 32, kernel_size=(1, 1), stride=(1, 1))
      (inception_3a_pool_proj_bn): BatchNorm2d(32, eps=1e-05, momentum=0.1, affine=True, track_running_stats=True)
      (inception_3a_relu_pool_proj): ReLU(inplace=True)
      (inception_3b_1x1): Conv2d(256, 64, kernel_size=(1, 1), stride=(1, 1))
      (inception_3b_1x1_bn): BatchNorm2d(64, eps=1e-05, momentum=0.1, affine=True, track_running_stats=True)
      (inception_3b_relu_1x1): ReLU(inplace=True)
      (inception_3b_3x3_reduce): Conv2d(256, 64, kernel_size=(1, 1), stride=(1, 1))
      (inception_3b_3x3_reduce_bn): BatchNorm2d(64, eps=1e-05, momentum=0.1, affine=True, track_running_stats=True)
      (inception_3b_relu_3x3_reduce): ReLU(inplace=True)
      (inception_3b_3x3): Conv2d(64, 96, kernel_size=(3, 3), stride=(1, 1), padding=(1, 1))
      (inception_3b_3x3_bn): BatchNorm2d(96, eps=1e-05, momentum=0.1, affine=True, track_running_stats=True)
      (inception_3b_relu_3x3): ReLU(inplace=True)
      (inception_3b_double_3x3_reduce): Conv2d(256, 64, kernel_size=(1, 1), stride=(1, 1))
      (inception_3b_double_3x3_reduce_bn): BatchNorm2d(64, eps=1e-05, momentum=0.1, affine=True, track_running_stats=True)
      (inception_3b_relu_double_3x3_reduce): ReLU(inplace=True)
      (inception_3b_double_3x3_1): Conv2d(64, 96, kernel_size=(3, 3), stride=(1, 1), padding=(1, 1))
      (inception_3b_double_3x3_1_bn): BatchNorm2d(96, eps=1e-05, momentum=0.1, affine=True, track_running_stats=True)
      (inception_3b_relu_double_3x3_1): ReLU(inplace=True)
      (inception_3b_double_3x3_2): Conv2d(96, 96, kernel_size=(3, 3), stride=(1, 1), padding=(1, 1))
      (inception_3b_double_3x3_2_bn): BatchNorm2d(96, eps=1e-05, momentum=0.1, affine=True, track_running_stats=True)
      (inception_3b_relu_double_3x3_2): ReLU(inplace=True)
      (inception_3b_pool): AvgPool2d(kernel_size=3, stride=1, padding=1)
      (inception_3b_pool_proj): Conv2d(256, 64, kernel_size=(1, 1), stride=(1, 1))
      (inception_3b_pool_proj_bn): BatchNorm2d(64, eps=1e-05, momentum=0.1, affine=True, track_running_stats=True)
      (inception_3b_relu_pool_proj): ReLU(inplace=True)
      (inception_3c_3x3_reduce): Conv2d(320, 128, kernel_size=(1, 1), stride=(1, 1))
      (inception_3c_3x3_reduce_bn): BatchNorm2d(128, eps=1e-05, momentum=0.1, affine=True, track_running_stats=True)
      (inception_3c_relu_3x3_reduce): ReLU(inplace=True)
      (inception_3c_3x3): Conv2d(128, 160, kernel_size=(3, 3), stride=(2, 2), padding=(1, 1))
      (inception_3c_3x3_bn): BatchNorm2d(160, eps=1e-05, momentum=0.1, affine=True, track_running_stats=True)
      (inception_3c_relu_3x3): ReLU(inplace=True)
      (inception_3c_double_3x3_reduce): Conv2d(320, 64, kernel_size=(1, 1), stride=(1, 1))
      (inception_3c_double_3x3_reduce_bn): BatchNorm2d(64, eps=1e-05, momentum=0.1, affine=True, track_running_stats=True)
      (inception_3c_relu_double_3x3_reduce): ReLU(inplace=True)
      (inception_3c_double_3x3_1): Conv2d(64, 96, kernel_size=(3, 3), stride=(1, 1), padding=(1, 1))
      (inception_3c_double_3x3_1_bn): BatchNorm2d(96, eps=1e-05, momentum=0.1, affine=True, track_running_stats=True)
      (inception_3c_relu_double_3x3_1): ReLU(inplace=True)
      (inception_3c_double_3x3_2): Conv2d(96, 96, kernel_size=(3, 3), stride=(2, 2), padding=(1, 1))
      (inception_3c_double_3x3_2_bn): BatchNorm2d(96, eps=1e-05, momentum=0.1, affine=True, track_running_stats=True)
      (inception_3c_relu_double_3x3_2): ReLU(inplace=True)
      (inception_3c_pool): MaxPool2d(kernel_size=(3, 3), stride=(2, 2), padding=0, dilation=(1, 1), ceil_mode=True)
      (inception_4a_1x1): Conv2d(576, 224, kernel_size=(1, 1), stride=(1, 1))
      (inception_4a_1x1_bn): BatchNorm2d(224, eps=1e-05, momentum=0.1, affine=True, track_running_stats=True)
      (inception_4a_relu_1x1): ReLU(inplace=True)
      (inception_4a_3x3_reduce): Conv2d(576, 64, kernel_size=(1, 1), stride=(1, 1))
      (inception_4a_3x3_reduce_bn): BatchNorm2d(64, eps=1e-05, momentum=0.1, affine=True, track_running_stats=True)
      (inception_4a_relu_3x3_reduce): ReLU(inplace=True)
      (inception_4a_3x3): Conv2d(64, 96, kernel_size=(3, 3), stride=(1, 1), padding=(1, 1))
      (inception_4a_3x3_bn): BatchNorm2d(96, eps=1e-05, momentum=0.1, affine=True, track_running_stats=True)
      (inception_4a_relu_3x3): ReLU(inplace=True)
      (inception_4a_double_3x3_reduce): Conv2d(576, 96, kernel_size=(1, 1), stride=(1, 1))
      (inception_4a_double_3x3_reduce_bn): BatchNorm2d(96, eps=1e-05, momentum=0.1, affine=True, track_running_stats=True)
      (inception_4a_relu_double_3x3_reduce): ReLU(inplace=True)
      (inception_4a_double_3x3_1): Conv2d(96, 128, kernel_size=(3, 3), stride=(1, 1), padding=(1, 1))
      (inception_4a_double_3x3_1_bn): BatchNorm2d(128, eps=1e-05, momentum=0.1, affine=True, track_running_stats=True)
      (inception_4a_relu_double_3x3_1): ReLU(inplace=True)
      (inception_4a_double_3x3_2): Conv2d(128, 128, kernel_size=(3, 3), stride=(1, 1), padding=(1, 1))
      (inception_4a_double_3x3_2_bn): BatchNorm2d(128, eps=1e-05, momentum=0.1, affine=True, track_running_stats=True)
      (inception_4a_relu_double_3x3_2): ReLU(inplace=True)
      (inception_4a_pool): AvgPool2d(kernel_size=3, stride=1, padding=1)
      (inception_4a_pool_proj): Conv2d(576, 128, kernel_size=(1, 1), stride=(1, 1))
      (inception_4a_pool_proj_bn): BatchNorm2d(128, eps=1e-05, momentum=0.1, affine=True, track_running_stats=True)
      (inception_4a_relu_pool_proj): ReLU(inplace=True)
      (inception_4b_1x1): Conv2d(576, 192, kernel_size=(1, 1), stride=(1, 1))
      (inception_4b_1x1_bn): BatchNorm2d(192, eps=1e-05, momentum=0.1, affine=True, track_running_stats=True)
      (inception_4b_relu_1x1): ReLU(inplace=True)
      (inception_4b_3x3_reduce): Conv2d(576, 96, kernel_size=(1, 1), stride=(1, 1))
      (inception_4b_3x3_reduce_bn): BatchNorm2d(96, eps=1e-05, momentum=0.1, affine=True, track_running_stats=True)
      (inception_4b_relu_3x3_reduce): ReLU(inplace=True)
      (inception_4b_3x3): Conv2d(96, 128, kernel_size=(3, 3), stride=(1, 1), padding=(1, 1))
      (inception_4b_3x3_bn): BatchNorm2d(128, eps=1e-05, momentum=0.1, affine=True, track_running_stats=True)
      (inception_4b_relu_3x3): ReLU(inplace=True)
      (inception_4b_double_3x3_reduce): Conv2d(576, 96, kernel_size=(1, 1), stride=(1, 1))
      (inception_4b_double_3x3_reduce_bn): BatchNorm2d(96, eps=1e-05, momentum=0.1, affine=True, track_running_stats=True)
      (inception_4b_relu_double_3x3_reduce): ReLU(inplace=True)
      (inception_4b_double_3x3_1): Conv2d(96, 128, kernel_size=(3, 3), stride=(1, 1), padding=(1, 1))
      (inception_4b_double_3x3_1_bn): BatchNorm2d(128, eps=1e-05, momentum=0.1, affine=True, track_running_stats=True)
      (inception_4b_relu_double_3x3_1): ReLU(inplace=True)
      (inception_4b_double_3x3_2): Conv2d(128, 128, kernel_size=(3, 3), stride=(1, 1), padding=(1, 1))
      (inception_4b_double_3x3_2_bn): BatchNorm2d(128, eps=1e-05, momentum=0.1, affine=True, track_running_stats=True)
      (inception_4b_relu_double_3x3_2): ReLU(inplace=True)
      (inception_4b_pool): AvgPool2d(kernel_size=3, stride=1, padding=1)
      (inception_4b_pool_proj): Conv2d(576, 128, kernel_size=(1, 1), stride=(1, 1))
      (inception_4b_pool_proj_bn): BatchNorm2d(128, eps=1e-05, momentum=0.1, affine=True, track_running_stats=True)
      (inception_4b_relu_pool_proj): ReLU(inplace=True)
      (inception_4c_1x1): Conv2d(576, 160, kernel_size=(1, 1), stride=(1, 1))
      (inception_4c_1x1_bn): BatchNorm2d(160, eps=1e-05, momentum=0.1, affine=True, track_running_stats=True)
      (inception_4c_relu_1x1): ReLU(inplace=True)
      (inception_4c_3x3_reduce): Conv2d(576, 128, kernel_size=(1, 1), stride=(1, 1))
      (inception_4c_3x3_reduce_bn): BatchNorm2d(128, eps=1e-05, momentum=0.1, affine=True, track_running_stats=True)
      (inception_4c_relu_3x3_reduce): ReLU(inplace=True)
      (inception_4c_3x3): Conv2d(128, 160, kernel_size=(3, 3), stride=(1, 1), padding=(1, 1))
      (inception_4c_3x3_bn): BatchNorm2d(160, eps=1e-05, momentum=0.1, affine=True, track_running_stats=True)
      (inception_4c_relu_3x3): ReLU(inplace=True)
      (inception_4c_double_3x3_reduce): Conv2d(576, 128, kernel_size=(1, 1), stride=(1, 1))
      (inception_4c_double_3x3_reduce_bn): BatchNorm2d(128, eps=1e-05, momentum=0.1, affine=True, track_running_stats=True)
      (inception_4c_relu_double_3x3_reduce): ReLU(inplace=True)
      (inception_4c_double_3x3_1): Conv2d(128, 160, kernel_size=(3, 3), stride=(1, 1), padding=(1, 1))
      (inception_4c_double_3x3_1_bn): BatchNorm2d(160, eps=1e-05, momentum=0.1, affine=True, track_running_stats=True)
      (inception_4c_relu_double_3x3_1): ReLU(inplace=True)
      (inception_4c_double_3x3_2): Conv2d(160, 160, kernel_size=(3, 3), stride=(1, 1), padding=(1, 1))
      (inception_4c_double_3x3_2_bn): BatchNorm2d(160, eps=1e-05, momentum=0.1, affine=True, track_running_stats=True)
      (inception_4c_relu_double_3x3_2): ReLU(inplace=True)
      (inception_4c_pool): AvgPool2d(kernel_size=3, stride=1, padding=1)
      (inception_4c_pool_proj): Conv2d(576, 128, kernel_size=(1, 1), stride=(1, 1))
      (inception_4c_pool_proj_bn): BatchNorm2d(128, eps=1e-05, momentum=0.1, affine=True, track_running_stats=True)
      (inception_4c_relu_pool_proj): ReLU(inplace=True)
      (inception_4d_1x1): Conv2d(608, 96, kernel_size=(1, 1), stride=(1, 1))
      (inception_4d_1x1_bn): BatchNorm2d(96, eps=1e-05, momentum=0.1, affine=True, track_running_stats=True)
      (inception_4d_relu_1x1): ReLU(inplace=True)
      (inception_4d_3x3_reduce): Conv2d(608, 128, kernel_size=(1, 1), stride=(1, 1))
      (inception_4d_3x3_reduce_bn): BatchNorm2d(128, eps=1e-05, momentum=0.1, affine=True, track_running_stats=True)
      (inception_4d_relu_3x3_reduce): ReLU(inplace=True)
      (inception_4d_3x3): Conv2d(128, 192, kernel_size=(3, 3), stride=(1, 1), padding=(1, 1))
      (inception_4d_3x3_bn): BatchNorm2d(192, eps=1e-05, momentum=0.1, affine=True, track_running_stats=True)
      (inception_4d_relu_3x3): ReLU(inplace=True)
      (inception_4d_double_3x3_reduce): Conv2d(608, 160, kernel_size=(1, 1), stride=(1, 1))
      (inception_4d_double_3x3_reduce_bn): BatchNorm2d(160, eps=1e-05, momentum=0.1, affine=True, track_running_stats=True)
      (inception_4d_relu_double_3x3_reduce): ReLU(inplace=True)
      (inception_4d_double_3x3_1): Conv2d(160, 192, kernel_size=(3, 3), stride=(1, 1), padding=(1, 1))
      (inception_4d_double_3x3_1_bn): BatchNorm2d(192, eps=1e-05, momentum=0.1, affine=True, track_running_stats=True)
      (inception_4d_relu_double_3x3_1): ReLU(inplace=True)
      (inception_4d_double_3x3_2): Conv2d(192, 192, kernel_size=(3, 3), stride=(1, 1), padding=(1, 1))
      (inception_4d_double_3x3_2_bn): BatchNorm2d(192, eps=1e-05, momentum=0.1, affine=True, track_running_stats=True)
      (inception_4d_relu_double_3x3_2): ReLU(inplace=True)
      (inception_4d_pool): AvgPool2d(kernel_size=3, stride=1, padding=1)
      (inception_4d_pool_proj): Conv2d(608, 128, kernel_size=(1, 1), stride=(1, 1))
      (inception_4d_pool_proj_bn): BatchNorm2d(128, eps=1e-05, momentum=0.1, affine=True, track_running_stats=True)
      (inception_4d_relu_pool_proj): ReLU(inplace=True)
      (inception_4e_3x3_reduce): Conv2d(608, 128, kernel_size=(1, 1), stride=(1, 1))
      (inception_4e_3x3_reduce_bn): BatchNorm2d(128, eps=1e-05, momentum=0.1, affine=True, track_running_stats=True)
      (inception_4e_relu_3x3_reduce): ReLU(inplace=True)
      (inception_4e_3x3): Conv2d(128, 192, kernel_size=(3, 3), stride=(2, 2), padding=(1, 1))
      (inception_4e_3x3_bn): BatchNorm2d(192, eps=1e-05, momentum=0.1, affine=True, track_running_stats=True)
      (inception_4e_relu_3x3): ReLU(inplace=True)
      (inception_4e_double_3x3_reduce): Conv2d(608, 192, kernel_size=(1, 1), stride=(1, 1))
      (inception_4e_double_3x3_reduce_bn): BatchNorm2d(192, eps=1e-05, momentum=0.1, affine=True, track_running_stats=True)
      (inception_4e_relu_double_3x3_reduce): ReLU(inplace=True)
      (inception_4e_double_3x3_1): Conv2d(192, 256, kernel_size=(3, 3), stride=(1, 1), padding=(1, 1))
      (inception_4e_double_3x3_1_bn): BatchNorm2d(256, eps=1e-05, momentum=0.1, affine=True, track_running_stats=True)
      (inception_4e_relu_double_3x3_1): ReLU(inplace=True)
      (inception_4e_double_3x3_2): Conv2d(256, 256, kernel_size=(3, 3), stride=(2, 2), padding=(1, 1))
      (inception_4e_double_3x3_2_bn): BatchNorm2d(256, eps=1e-05, momentum=0.1, affine=True, track_running_stats=True)
      (inception_4e_relu_double_3x3_2): ReLU(inplace=True)
      (inception_4e_pool): MaxPool2d(kernel_size=(3, 3), stride=(2, 2), padding=0, dilation=(1, 1), ceil_mode=True)
      (inception_5a_1x1): Conv2d(1056, 352, kernel_size=(1, 1), stride=(1, 1))
      (inception_5a_1x1_bn): BatchNorm2d(352, eps=1e-05, momentum=0.1, affine=True, track_running_stats=True)
      (inception_5a_relu_1x1): ReLU(inplace=True)
      (inception_5a_3x3_reduce): Conv2d(1056, 192, kernel_size=(1, 1), stride=(1, 1))
      (inception_5a_3x3_reduce_bn): BatchNorm2d(192, eps=1e-05, momentum=0.1, affine=True, track_running_stats=True)
      (inception_5a_relu_3x3_reduce): ReLU(inplace=True)
      (inception_5a_3x3): Conv2d(192, 320, kernel_size=(3, 3), stride=(1, 1), padding=(1, 1))
      (inception_5a_3x3_bn): BatchNorm2d(320, eps=1e-05, momentum=0.1, affine=True, track_running_stats=True)
      (inception_5a_relu_3x3): ReLU(inplace=True)
      (inception_5a_double_3x3_reduce): Conv2d(1056, 160, kernel_size=(1, 1), stride=(1, 1))
      (inception_5a_double_3x3_reduce_bn): BatchNorm2d(160, eps=1e-05, momentum=0.1, affine=True, track_running_stats=True)
      (inception_5a_relu_double_3x3_reduce): ReLU(inplace=True)
      (inception_5a_double_3x3_1): Conv2d(160, 224, kernel_size=(3, 3), stride=(1, 1), padding=(1, 1))
      (inception_5a_double_3x3_1_bn): BatchNorm2d(224, eps=1e-05, momentum=0.1, affine=True, track_running_stats=True)
      (inception_5a_relu_double_3x3_1): ReLU(inplace=True)
      (inception_5a_double_3x3_2): Conv2d(224, 224, kernel_size=(3, 3), stride=(1, 1), padding=(1, 1))
      (inception_5a_double_3x3_2_bn): BatchNorm2d(224, eps=1e-05, momentum=0.1, affine=True, track_running_stats=True)
      (inception_5a_relu_double_3x3_2): ReLU(inplace=True)
      (inception_5a_pool): AvgPool2d(kernel_size=3, stride=1, padding=1)
      (inception_5a_pool_proj): Conv2d(1056, 128, kernel_size=(1, 1), stride=(1, 1))
      (inception_5a_pool_proj_bn): BatchNorm2d(128, eps=1e-05, momentum=0.1, affine=True, track_running_stats=True)
      (inception_5a_relu_pool_proj): ReLU(inplace=True)
      (inception_5b_1x1): Conv2d(1024, 352, kernel_size=(1, 1), stride=(1, 1))
      (inception_5b_1x1_bn): BatchNorm2d(352, eps=1e-05, momentum=0.1, affine=True, track_running_stats=True)
      (inception_5b_relu_1x1): ReLU(inplace=True)
      (inception_5b_3x3_reduce): Conv2d(1024, 192, kernel_size=(1, 1), stride=(1, 1))
      (inception_5b_3x3_reduce_bn): BatchNorm2d(192, eps=1e-05, momentum=0.1, affine=True, track_running_stats=True)
      (inception_5b_relu_3x3_reduce): ReLU(inplace=True)
      (inception_5b_3x3): Conv2d(192, 320, kernel_size=(3, 3), stride=(1, 1), padding=(1, 1))
      (inception_5b_3x3_bn): BatchNorm2d(320, eps=1e-05, momentum=0.1, affine=True, track_running_stats=True)
      (inception_5b_relu_3x3): ReLU(inplace=True)
      (inception_5b_double_3x3_reduce): Conv2d(1024, 192, kernel_size=(1, 1), stride=(1, 1))
      (inception_5b_double_3x3_reduce_bn): BatchNorm2d(192, eps=1e-05, momentum=0.1, affine=True, track_running_stats=True)
      (inception_5b_relu_double_3x3_reduce): ReLU(inplace=True)
      (inception_5b_double_3x3_1): Conv2d(192, 224, kernel_size=(3, 3), stride=(1, 1), padding=(1, 1))
      (inception_5b_double_3x3_1_bn): BatchNorm2d(224, eps=1e-05, momentum=0.1, affine=True, track_running_stats=True)
      (inception_5b_relu_double_3x3_1): ReLU(inplace=True)
      (inception_5b_double_3x3_2): Conv2d(224, 224, kernel_size=(3, 3), stride=(1, 1), padding=(1, 1))
      (inception_5b_double_3x3_2_bn): BatchNorm2d(224, eps=1e-05, momentum=0.1, affine=True, track_running_stats=True)
      (inception_5b_relu_double_3x3_2): ReLU(inplace=True)
      (inception_5b_pool): MaxPool2d(kernel_size=(3, 3), stride=(1, 1), padding=(1, 1), dilation=(1, 1), ceil_mode=True)
      (inception_5b_pool_proj): Conv2d(1024, 128, kernel_size=(1, 1), stride=(1, 1))
      (inception_5b_pool_proj_bn): BatchNorm2d(128, eps=1e-05, momentum=0.1, affine=True, track_running_stats=True)
      (inception_5b_relu_pool_proj): ReLU(inplace=True)
      (global_pool): AvgPool2d(kernel_size=7, stride=1, padding=0)
      (last_linear): Dropout(p=0.3, inplace=False)
    )
    (new_fc): Linear(in_features=1024, out_features=256, bias=True)
    (consensus): RelationModuleMultiScale(
      (fc_fusion_scales): ModuleList(
        (0): Sequential(
          (0): ReLU()
          (1): Linear(in_features=2048, out_features=256, bias=True)
          (2): ReLU()
          (3): Linear(in_features=256, out_features=4, bias=True)
        )
        (1): Sequential(
          (0): ReLU()
          (1): Linear(in_features=1792, out_features=256, bias=True)
          (2): ReLU()
          (3): Linear(in_features=256, out_features=4, bias=True)
        )
        (2): Sequential(
          (0): ReLU()
          (1): Linear(in_features=1536, out_features=256, bias=True)
          (2): ReLU()
          (3): Linear(in_features=256, out_features=4, bias=True)
        )
        (3): Sequential(
          (0): ReLU()
          (1): Linear(in_features=1280, out_features=256, bias=True)
          (2): ReLU()
          (3): Linear(in_features=256, out_features=4, bias=True)
        )
        (4): Sequential(
          (0): ReLU()
          (1): Linear(in_features=1024, out_features=256, bias=True)
          (2): ReLU()
          (3): Linear(in_features=256, out_features=4, bias=True)
        )
        (5): Sequential(
          (0): ReLU()
          (1): Linear(in_features=768, out_features=256, bias=True)
          (2): ReLU()
          (3): Linear(in_features=256, out_features=4, bias=True)
        )
        (6): Sequential(
          (0): ReLU()
          (1): Linear(in_features=512, out_features=256, bias=True)
          (2): ReLU()
          (3): Linear(in_features=256, out_features=4, bias=True)
        )
      )
    )
  )
)
=> loading checkpoint '/home/machine/PROJECTS/OTHER/fubel/stmodeling/model/STModeling_jester_RGB_BNInception_TRNmultiscale_segment8_checkpoint.pth.tar'
Freezing BatchNorm2D except the first one.
=> loaded checkpoint 
video number:1
